pygame 2.6.1 (SDL 2.28.4, Python 3.8.20)
Hello from the pygame community. https://www.pygame.org/contribute.html
cuda:0
[33mWARN: gym.spaces.Box autodetected dtype as <class 'numpy.float32'>. Please provide explicit dtype.[0m
Soft Q Network:  SoftQNetwork(
  (embedding_layer): EmbeddingLayer(
    (embeddings): ModuleDict(
      (bus_id): Embedding(25, 12)
      (station_id): Embedding(22, 11)
      (time_period): Embedding(15, 7)
      (direction): Embedding(2, 1)
    )
  )
  (critic): Sequential(
    (0): VectorizedLinear()
    (1): ReLU()
    (2): VectorizedLinear()
    (3): ReLU()
    (4): VectorizedLinear()
    (5): ReLU()
    (6): VectorizedLinear()
  )
)
Policy Network:  PolicyNetwork(
  (embedding_layer): EmbeddingLayer(
    (embeddings): ModuleDict(
      (bus_id): Embedding(25, 12)
      (station_id): Embedding(22, 11)
      (time_period): Embedding(15, 7)
      (direction): Embedding(2, 1)
    )
  )
  (linear1): Linear(in_features=55, out_features=64, bias=True)
  (linear2): Linear(in_features=64, out_features=64, bias=True)
  (linear3): Linear(in_features=64, out_features=64, bias=True)
  (linear4): Linear(in_features=64, out_features=64, bias=True)
  (mean_linear): Linear(in_features=64, out_features=1, bias=True)
  (log_std_linear): Linear(in_features=64, out_features=1, bias=True)
)
[2K[2KEpisode: 0 | Episode Reward: -1152345.8083009096 | CPU Memory: 1626.34 MB | GPU Memory Allocated: 19.29 MB | Replay Buffer Usage: 4.97%
[2K[2KEpisode: 1 | Episode Reward: -1113079.8564560835 | CPU Memory: 1673.24 MB | GPU Memory Allocated: 19.29 MB | Replay Buffer Usage: 9.94%
[2K[2KEpisode: 2 | Episode Reward: -624321.7864476817 | CPU Memory: 1678.41 MB | GPU Memory Allocated: 19.29 MB | Replay Buffer Usage: 14.91%
…
